x_train shape: (60000, 28, 28, 1)
60000 train samples
10000 test samples

Model: "sequential"
_________________________________________________________________
 Layer (type)                Output Shape              Param #   
=================================================================
 conv2d_1 (Conv2D)           (None, 26, 26, 32)        320       
                                                                 
 max_pooling2d (MaxPooling2  (None, 13, 13, 32)        0         
 D)                                                              
                                                                 
 conv2d_2 (Conv2D)           (None, 11, 11, 64)        18496     
                                                                 
 max_pooling2d_1 (MaxPoolin  (None, 5, 5, 64)          0         
 g2D)                                                            
                                                                 
 flatten (Flatten)           (None, 1600)              0         
                                                                 
 dropout (Dropout)           (None, 1600)              0         
                                                                 
 dense (Dense)               (None, 10)                16010     
                                                                 
=================================================================
Total params: 34826 (136.04 KB)
Trainable params: 34826 (136.04 KB)
Non-trainable params: 0 (0.00 Byte)
_________________________________________________________________

Epoch 1/30
54000/54000 [==============================] - 74s 1ms/step - loss: 0.1586 - accuracy: 0.9508 - val_loss: 0.0486 - val_accuracy: 0.9852
…
